…
ut_prob=0.01, hidden_size=256, lr=0.01; total time=   4.1s\n","[CV] END ........dropout_prob=0.01, hidden_size=256, lr=0.01; total time=   2.1s\n","[CV] END .........dropout_prob=0.01, hidden_size=256, lr=0.1; total time=   2.5s\n","[CV] END .........dropout_prob=0.01, hidden_size=256, lr=0.1; total time=   2.3s\n","[CV] END .........dropout_prob=0.01, hidden_size=256, lr=0.1; total time=   2.0s\n","Best Hyperparameters: {'dropout_prob': 0.001, 'hidden_size': 64, 'lr': 0.01}\n","Best Model: NeuralNetwork(\n","  (criterion): MSELoss()\n","  (flatten): Flatten(start_dim=1, end_dim=-1)\n","  (bn0): BatchNorm1d(17, eps=1e-05, momentum=0.1, affine=True, track_running_stats=True)\n","  (linear1): Linear(in_features=17, out_features=64, bias=True)\n","  (bn1): BatchNorm1d(64, eps=1e-05, momentum=0.1, affine=True, track_running_stats=True)\n","  (dropout1): Dropout(p=0.001, inplace=False)\n","  (linear2): Linear(in_features=64, out_features=4, bias=True)\n","  (linear3): Linear(in_features=4, out_features=1, bias=True)\n",")\n"]}]},{"cell_type":"code","source":["y_pred = best_model.predict(X_test)\n","\n","score = r2_score(y_test, y_pred)\n","score"],"metadata":{"colab":{"base_uri":"https://localhost:8080/"},"id":"udOpU8e1_cHp","executionInfo":{"status":"ok","timestamp":1687740737947,"user_tz":360,"elapsed":23,"user":{"displayName":"Ilja Rausch","userId":"092244433085459
…
ight":302},"id":"gkeEb4dlHiBW","executionInfo":{"status":"ok","timestamp":1687740961397,"user_tz":360,"elapsed":9718,"user":{"displayName":"Ilja Rausch","userId":"09224443308545937385"}},"outputId":"0e4d11da-9adc-4d57-c03d-9bb4ae7995d9"},"execution_count":null,"outputs":[{"output_type":"stream","name":"stdout","text":["Epoch [10/30], Loss: 0.5246\n","Epoch [20/30], Loss: 0.6087\n","Epoch [30/30], Loss: 0.5340\n"]},{"output_type":"execute_result","data":{"text/plain":["ClassificationNeuralNetwork(\n","  (criterion): CrossEntropyLoss()\n","  (flatten): Flatten(start_dim=1, end_dim=-1)\n","  (bn0): BatchNorm1d(21, eps=1e-05, momentum=0.1, affine=True, track_running_stats=True)\n","  (linear1): Linear(in_features=21, out_features=64, bias=True)\n","  (bn1): BatchNorm1d(64, eps=1e-05, momentum=0.1, affine=True, track_running_stats=True)\n","  (dropout1): Dropout(p=0.02, inplace=False)\n","  (linear2): Linear(in_features=64, out_features=16, bias=True)\n","  (linear3): Linear(in_features=16, out_features=2, bias=True)\n","  (softmax): Softmax(dim=1)\n",")"],"text/html":["<style>#sk-container-id-1 {color: black;background-color: white;}#sk-container-id-1 pre{padding: 0;}#sk-container-id-1 div.sk-toggleable {background-color: white;}#sk-container-id-1 label.sk-toggleable__label {cursor: pointer;display: block;width: 100%;margin-bottom: 0;padding: 0.3em;box-sizing: border
…
rap.min.css set `[hidden] { display: none !important; }` so we also need the `!important` here to be able to override the default hidden behavior on the sphinx rendered scikit-learn.org. See: https://github.com/scikit-learn/scikit-learn/issues/21755 */display: inline-block !important;position: relative;}#sk-container-id-1 div.sk-text-repr-fallback {display: none;}</style><div id=\"sk-container-id-1\" class=\"sk-top-container\"><div class=\"sk-text-repr-fallback\"><pre>ClassificationNeuralNetwork(\n","  (criterion): CrossEntropyLoss()\n","  (flatten): Flatten(start_dim=1, end_dim=-1)\n","  (bn0): BatchNorm1d(21, eps=1e-05, momentum=0.1, affine=True, track_running_stats=True)\n","  (linear1): Linear(in_features=21, out_features=64, bias=True)\n","  (bn1): BatchNorm1d(64, eps=1e-05, momentum=0.1, affine=True, track_running_stats=True)\n","  (dropout1): Dropout(p=0.02, inplace=False)\n","  (linear2): Linear(in_features=64, out_features=16, bias=True)\n","  (linear3): Linear(in_features=16, out_features=2, bias=True)\n","  (softmax): Softmax(dim=1)\n",")</pre><b>In a Jupyter environment, please rerun this cell to show the HTML representation or trust the notebook. <br />On GitHub, the HTML representation is unable to render, please try loading this page with nbviewer.org.</b></div><div class=\"sk-container\" hidden><div class=\"sk-item\"><div class=\"sk-estimator sk-toggleable\"><input class=\"sk-toggleable__control sk-hidden--visually\" id=\"sk-estimator-id-1\" type=\"checkbox\" checked><label for=\"sk-estimator-id-1\" class=\"sk-toggleable__label sk-toggleable__label-arrow\">ClassificationNeuralNetwork</label><div class=\"sk-toggleable__content\"><pre>ClassificationNeuralNetwork(\n","  (criterion): CrossEntropyLoss()\n","  (flatten): Flatten(start_dim=1, end_dim=-1)\n","  (bn0): BatchNorm1d(21, eps=1e-05, momentum=0.1, affine=True, track_running_stats=True)\n","  (linear1): Linear(in_features=21, out_features=64, bias=True)\n","  (bn1): BatchNorm1d(64, eps=1e-05, momentum=0.1, affine=True, track_running_stats=True)\n","  (dropout1): Dropout(p=0.02, inplace=False)\n","  (linear2): Linear(in_features=64, out_features=16, bias=True)\n","  (linear3): Linear(in_features=16, out_features=2, bias=True)\n","  (softmax): Softmax(dim=1)\n",")</pre></div></div></div></div></div>"]},"metadata":{},"execution_count":70}]},{"cell_type":"markdown","source":["# Evaluate"],"metadata":{"id":"dwwYefrnTn8D"}},{"cell_type":"code","source":["from sklearn.metrics import classification_report\n","\n","y_pred = model_cl.predict(X_test)\n","\n","scores = classification_rep
…
